edgedevice/model.tflite (tflite, 740752 bytes, 16 tensors)

arith.constant f4 [32, 3, 3, 3]
-0.00027919246 0.00056333636 3.63316e-05 -0.00013561144 0.000496767 -0.00020795297 0.00017754591 3.3013491e-06
-0.00025484426 -0.00024301386 -0.00038849044 0.00041556483 -0.00011858238 0.00032651925 0.0005255423 -8.735454e-05
0.00037014828 -0.00010034112 -0.0003930774 -0.0002336598 -0.00011311847 -0.00037378748 -0.00025620405 0.0005260617
-0.0004934967 0.00030772501 0.0001579339 0.0004296975 -0.00044584184 -0.00029264172 -2.2215988e-06 0.00045400203
0.00041277762 0.0002699265 0.0003734126 -0.0003763457 1.0059084e-05 -0.00016569416 -0.0003286117 -0.00029465774
-1.450023e-06 -0.00014521238 -0.00018357104 0.0005353541 1.6346554e-05 0.00037175498 -8.9783825e-05 -0.00028279962
0.00019763022 5.740676e-05 0.00021134049 -0.0005389005 -0.00050035544 -4.9403574e-05 0.00040254876 -0.00025564918
0.00013713195 -0.00027427418 -0.00020564036 0.00014666139 6.7241526e-05 -0.00010160011 6.154067e-05 0.000575395
-0.00032011303 -0.00011058628 2.4827412e-05 0.00014368603 -0.00014156978 0.00037411007 0.00020012169 -7.483526e-05
0.000548494 -0.00033893713 0.00016358789 0.00027389423 -0.00036792367 -0.00043406428 0.0006544296 -0.0004659292
-0.0002759294 6.600215e-05 0.00037131063 0.00035866656 -0.00038796605 -0.0004867897 -9.505873e-05 0.0002882946
0.00040811184 -0.0003191847 0.00019056884 -0.00043544915 0.00021214639 0.00012221579 0.00030150043 -0.0003164464
0.0004478936 -9.478278e-05 0.00030018436 -0.00016844436 7.3234696e-05 -0.00029303192 -0.0005777705 -0.00042575254
0.00039429253 0.00038726337 0.00037042203 0.0001763093 0.00030241476 -0.00029083615 -0.00027923565 0.00038109763
0.00018760245 -5.232934e-05 -0.00018192908 -0.00012286443 0.00042758055 -0.0001576844 6.630146e-05 0.00039653882
0.0003893814 5.9263417e-05 9.0827474e-05 0.00044048455 -0.00026352427 8.627031e-05 6.3614134e-05 -0.00029639748
-0.00037697225 -0.00038351177 -0.0006600453 -0.00029103964 -0.00014435849 6.786101e-05 -0.0003182686 0.0004862366
-0.0002141791 -0.00041510395 0.00020887899 -0.00017580313 -6.205635e-05 -0.00034805323 0.0004290665 -0.00015082394
0.00050461566 -0.00027037296 0.0004669523 0.0004971866 0.00012417528 6.966927e-05 -3.4860573e-06 -0.00023456001
9.735916e-06 -0.00024320245 -0.000223218 1.3882698e-05 0.00014986387 -0.00023238777 -8.981126e-05 0.0005987973
-0.00012677135 -0.0003746308 0.00018923148 3.506215e-05 0.00010743298 -0.00019989855 0.00024610208 0.00043432755
-0.00016080054 0.0001882712 0.00036099434 -0.0005059783 0.00017454247 0.0003047033 0.00023721914 -0.00040813786
-0.00013919218 7.7419485e-05 -0.00044891014 -0.00011690696 0.00018699131 -1.121198e-05 -0.0004826899 0.00026188343
0.00015754286 -0.00014141492 0.00045193778 0.00024580385 0.00027635033 0.00053917326 9.1347196e-05 -0.00025346444
0.00046546274 -0.00029066746 -0.0005266462 0.000110075336 -0.000113894166 -0.00024208693 -0.00024087803 -0.00037835073
0.0003568797 0.00036620328 -0.00019479702 0.00051748543 7.642843e-05 -0.0004987516 -0.00029017538 0.00025892447
-0.00021889753 0.00021169982 -9.907964e-05 0.00021837607 -0.00019517403 0.0005277506 8.847978e-05 1.8703244e-05
0.000519819 -0.00037437346 -0.00027519662 0.00042882163 7.5689044e-05 0.00046890424 0.0004759585 -0.0005106493
0.00024122203 2.40978e-05 -0.00024945143 8.3863975e-05 0.00011249201 0.00023354951 -0.00038296753 -0.00021090866
-0.00026431028 -0.00043367743 0.00024541307 -0.00030407796 8.75202e-05 0.00021177693 -1.0499126e-05 7.9848105e-05
0.00015029806 0.00020116806 -0.00037566185 0.0003373602 -8.4271516e-05 0.0007148386 -0.00037951928 -0.0002874826
0.00041057955 0.00010988524 -0.00030897532 0.00050288095 0.00036560989 0.00017459223 -0.00040299282 -0.00038327233
00000000: 9460 92b9 ddac 133a c262 1838 eb32 0eb9
00000010: 7839 023a f30d 5ab9 9e2b 3a39 bf8c 5d36
00000020: 9e9c 85b9 89d1 7eb9 4eae cbb9 2be0 d939
00000030: 6eaf f8b8 ac30 ab39 8cc4 093a 1d32 b7b8
00000040: 7610 c239 3b6e d2b8 f515 ceb9 9302 75b9
00000050: 043a edb8 e8f8 c3b9 2053 86b9 67e7 093a
00000060: 015e 01ba 2756 a139 0f9b 2539 0649 e139
00000070: e1bf e9b9 b56d 99b9 c716 15b6 1f07 ee39
00000080: 136a d839 ec84 8d39 97c6 c339 4450 c5b9
00000090: 70c3 2837 30be 2db9 8449 acb9 4b7c 9ab9
000000a0: 699e c2b5 2744 18b9 fa7c 40b9 0157 0c3a
000000b0: f51f 8937 1ce8 c239 534a bcb8 b944 94b9
000000c0: f53a 4f39 0ac8 7038 489b 5d39 0045 0dba
000000d0: 492a 03ba af36 4fb8 2e0d d339 a708 86b9
000000e0: 14cb 0f39 75cc 8fb9 2aa1 57b9 1ec9 1939
000000f0: 0504 8d38 2512 d5b8 650f 8138 1bd6 163a
00000100: d8d4 a7b9 8fea e7b8 7644 d037 6daa 1639
00000110: 5972 14b9 3424 c439 c2d7 5139 e0f0 9cb8
00000120: cfc8 0f3a 5fb3 b1b9 ca88 2b39 7699 8f39
00000130: e1e5 c0b9 1f93 e3b9 078e 2b3a f547 f4b9
00000140: 9eaa 90b9 a26a 8a38 78ac c239 690b bc39
00000150: ec67 cbb9 cf37 ffb9 445a c7b8 3f26 9739
00000160: d8f7 d539 3f58 a7b9 6fd3 4739 ff4c e4b9
00000170: 9d73 5e39 0d27 0039 b412 9e39 b8e8 a5b9
00000180: 43d3 ea39 1ec6 c6b8 1062 9d39 70a0 30b9
00000190: 9495 9938 14a2 99b9 8675 17ba 8a37 dfb9
000001a0: 0cb9 ce39 9c09 cb39 3435 c239 abdf 3839
000001b0: 6c8d 9e39 5e7b 98b9 6066 92b9 0fce c739
000001c0: 26b7 4439 337c 5bb8 37c4 3eb9 2bd5 00b9
000001d0: e42c e039 1558 25b9 530b 8b38 8ae6 cf39
000001e0: e325 cc39 9c91 7838 a17a be38 d6f0 e639
000001f0: a129 8ab9 05ec b438 9468 8538 cc65 9bb9
00000200: 5ca4 c5b9 1412 c9b9 e406 2dba ae96 98b9
00000210: f05e 17b9 9a50 8e38 4add a6b9 92ed fe39
00000220: 4495 60b9 4fa2 d9b9 8706 5b39 cb57 38b9
00000230: 4024 82b8 ea7a b6b9 55f4 e039 7e26 1eb9
00000240: 2f48 043a d8c0 8db9 47d1 f439 a155 023a
00000250: 0c35 0239 681b 9238 02f2 69b6 39f4 75b9
00000260: 7157 2337 2904 7fb9 a00f 6ab9 bce9 6837
00000270: c724 1d39 1ead 73b9 0e59 bcb8 9bf8 1c3a
00000280: eded 04b9 186a c4b9 706c 4639 b20f 1338
00000290: a44d e138 dc9b 51b9 4307 8139 75b6 e339
000002a0: 919c 28b9 aa6a 4539 d743 bd39 a1a3 04ba
000002b0: 6305 3739 96c0 9f39 07be 7839 56fb d5b9
000002c0: 1ef4 11b9 455c a238 b35b ebb9 f22b f5b8
000002d0: 1913 4439 161b 3cb7 8b11 fdb9 664d 8939
000002e0: 1732 2539 c748 14b9 10f2 ec39 3cdf 8039
000002f0: 1de3 9039 4e57 0d3a a791 bf38 6ce3 84b9
00000300: 5a09 f439 ba64 98b9 a10e 0aba 3fd8 e638
00000310: 77da eeb8 b7d8 7db9 3494 7cb9 605d c6b9
00000320: 951b bb39 f9fe bf39 6d42 4cb9 dca7 073a
00000330: 3348 a038 a7be 02ba ae22 98b9 41c0 8739
00000340: dc87 65b9 bdfb 5d39 fac8 cfb8 e1fb 6439
00000350: a1a7 4cb9 be58 0a3a 388e b938 e9e4 9c37
00000360: 7644 083a 8e47 c4b9 4448 90b9 77d3 e039
00000370: 3fbb 9e38 43d7 f539 128a f939 18dd 05ba
00000380: 8cf0 7c39 a225 ca37 cec8 82b9 21e0 af38
00000390: b0e9 eb38 f8e4 7439 08c9 c8b9 5d27 5db9
000003a0: 2093 8ab9 335f e3b9 c9aa 8039 a76c 9fb9
000003b0: 0d8b b738 7010 5e39 6725 30b7 2074 a738
000003c0: 5499 1d39 a4f0 5239 7bf4 c4b9 b8df b039
000003d0: edba b0b8 0264 3b3a 37fa c6b9 43b9 96b9
000003e0: 0e43 d739 3072 e638 f7fd a1b9 c5d3 033a
000003f0: 54af bf39 bf12 3739 c848 d3b9 f1f1 c8b9

arith.constant1 f4 [64]
-0.010475772 0.043683145 -0.020717438 -0.015630852 -0.0060172034 -0.010095288 -0.048271876 -0.015335606
-0.017220989 0.023317918 0.035616238 0.028939925 -0.011057204 -0.014149012 0.03595867 -0.007189674
-0.00607991 0.033938434 0.037538666 0.0131763965 -0.015203989 -0.0070143472 -0.019207291 -0.0069510057
-0.008648196 -0.013109457 0.004637143 -0.023944931 0.0031793732 -0.0111567285 -0.028737051 0.046560034
0.016990006 -0.017674513 -0.009496971 0.005522128 -0.012878928 -0.006260783 -0.022375524 -0.010129519
0.046554822 -0.007855532 -0.014774611 -0.007609998 0.021068469 0.030937927 0.025808847 -0.011788563
0.033448137 -0.00079372886 -0.03252783 -0.011477253 0.0047741197 -0.00015277932 -0.017962623 -0.0053459136
-0.02323051 -0.0057091666 -0.015294723 -0.017016325 -0.0069279224 0.018424835 -0.011897133 -0.01581053
00000000: 93a2 2bbc 19ed 323d 9eb7 a9bc 460c 80bc
00000010: f62b c5bb b566 25bc bbb8 45bd 3242 7bbc
00000020: 0813 8dbc 3805 bf3c 55e2 113d 6c13 ed3c
00000030: 4629 35bc 42d1 67bc 6649 133d 5b97 ebbb
00000040: fb39 c7bb 0703 0b3d 25c2 193d d0e1 573c
00000050: 271a 79bc 9cd8 e5bb 9c58 9dbc 43c5 e3bb
00000060: 2ab1 0dbc 0cc9 56bc 2df3 973b 2928 c4bc
00000070: 085d 503b b6ca 36bc f769 ebbc bcb5 3e3d
00000080: a02e 8b3c 24ca 90bc 2f99 1bbc f8f2 b43b
00000090: 2402 53bc 4127 cdbb e04c b7bc 48f6 25bc
000000a0: 45b0 3e3d 7db4 00bc 3611 72bc 4a5d f9bb
000000b0: c897 ac3c 8971 fd3c 136d d33c d124 41bc
000000c0: ea00 093d 3e12 50ba e73b 05bd 170b 3cbc
000000d0: 3870 9c3b 6333 20b9 5a26 93bc c62c afbb
000000e0: e94d bebc f613 bbbb b896 7abc d265 8bbc
000000f0: a003 e3bb aeef 963c 31ec 42bc 1685 81bc

arith.constant2 f4 [64]
-0.010653162 0.0038014692 0.006921142 -0.0072017624 0.012684658 0.042625554 0.024902882 0.00037320214
0.015468349 -0.012702794 -0.0027133494 0.021951068 0.026822885 0.0007677109 0.045082938 0.021971164
-0.018366659 0.022190828 -0.014240026 0.028071841 -0.020235857 0.03236147 -0.0065907813 -0.023072783
0.00656663 -0.009367506 0.01080739 -0.01150234 0.015019504 0.031833116 0.03252795 -0.012092226
-0.015365183 -0.018095024 0.0051270104 -0.02104467 -0.013949347 -0.0029415465 0.0017660373 -0.011509423
0.00035046888 0.0068383305 0.030969808 -0.035175126 -0.011864172 -0.030845093 0.034483068 -0.009992212
-0.015248941 0.02861875 0.024350144 -0.025765136 0.051582202 0.046342645 0.026637217 0.004133082
0.033795595 0.051275052 0.022163346 -0.012786491 -0.013331251 0.022517148 0.0344329 -0.019282568
00000000: 9a8a 2ebc 1222 793b bfca e23b c3fc ebbb
00000010: 50d3 4f3c 2298 2e3d 2101 cc3c 58aa c339
00000020: f56e 7d3c 611f 50bc 73d2 31bb bad2 b33c
00000030: abbb db3c 3540 493a e3a8 383d dffc b33c
00000040: ad75 96bc 8ac9 b53c ff4e 69bc ebf6 e53c
00000050: abc5 a5bc 768d 043d 7bf7 d7bb 2203 bdbc
00000060: e32c d73b 2b7a 19bc 7b11 313c 5074 3cbc
00000070: 5e14 763c 7163 023d 073c 053d 791e 46bc
00000080: 40be 7bbc 043c 94bc 7b00 a83b df65 acbc
00000090: cd8b 64bc f6c6 40bb 617a e73a 0592 3cbc
000000a0: 23bf b739 1314 e03b 65b4 fd3c cb13 10bd
000000b0: f261 42bc d9ae fcbc 1e3e 0d3d 60b6 23bc
000000c0: b2d6 79bc de71 ea3c f479 c73c 6811 d3bc
000000d0: dc47 533d c9d1 3d3d 4b36 da3c ce6e 873b
000000e0: 406d 0a3d ca05 523d e88f b53c 6e7e 51bc
000000f0: 526b 5abc e275 b83c 8309 0d3d 7af6 9dbc

arith.constant3 f4 [64]
0.02270184 -0.0060916916 0.009537984 -0.027022274 0.042050734 -0.03675933 0.01186356 0.06030869
-0.028831363 -0.008239543 0.020111874 0.035384085 -0.0062711285 -0.005261187 0.05602966 -0.023014797
0.025477586 -0.04768245 -0.0060285507 -0.0065026786 -0.01989487 -0.012797382 -0.0007909967 -0.0024295987
-0.01475072 0.011185024 -0.0281423 -0.002056621 0.022318952 0.007605608 -0.032335434 0.0041159964
-0.015982645 -0.012562527 -0.0062251575 0.039035242 -0.01773798 0.06377116 -0.009253807 0.0037113945
0.0019866873 -0.018168522 -0.0044997837 -0.019952063 -0.008006376 0.036601245 -0.019018868 0.039900966
-0.012685289 -0.0003876219 -0.005485205 0.050500043 -0.008749925 -0.01199964 -0.016147275 0.046043076
-0.006223751 -0.010773096 0.02583584 0.004717153 -0.013575618 0.012900398 0.06397213 0.018391404
00000000: 36f9 b93c d09c c7bb 3445 1c3c d15d ddbc
00000010: 643d 2c3d f490 16bd 615f 423c 3f06 773d
00000020: c02f ecbc 26ff 06bc a8c1 a43c e7ee 103d
00000030: 0a7e cdbb 0966 acbb 5b7f 653d 8789 bcbc
00000040: 5fb6 d03c ac4e 43bd 268b c5bb 6c14 d5bb
00000050: 91fa a2bc 1cac 51bc e45a 4fba e739 1fbb
00000060: 01ad 71bc 6441 373c ae8a e6bc 60c8 06bb
00000070: 3cd6 b63c 7738 f93b 2972 04bd 7bdf 863b
00000080: 09ee 82bc 0fd3 4dbc 68fc cbbb 6be3 1f3d
00000090: 3d4f 91bc 749a 823d 489d 17bc de3a 733b
000000a0: 1533 023b 27d6 94bc ec72 93bb 8272 a3bc
000000b0: 2d2d 03bc 30eb 153d 75cd 9bbc 326f 233d
000000c0: f5d5 4fbc bb39 cbb9 3cbd b3bb 22d9 4e3d
000000d0: d85b 0fbc 239a 44bc 4a47 84bc aa97 3c3d
000000e0: 9cf0 cbbb a481 30bc afa5 d33c 5992 9a3b
000000f0: 456c 5ebc 315c 533c d203 833d 92a9 963c

arith.constant4 f4 [64]
-0.008694881 -0.009436376 -0.010235756 0.01307446 0.0013020993 0.052534502 0.06961462 0.0576351
0.015881578 0.055837397 0.0045964527 -0.02505657 -0.016613647 -0.011136143 0.018980863 0.054307356
0.00081807334 0.01173678 -0.050127145 -0.0024620255 -0.008214737 -0.044751655 -0.0067092497 -0.009233739
-0.011506025 -0.076839186 -0.0042906 -0.042835888 -0.0062031425 -0.007396216 -0.014319529 -0.031562574
-0.036304522 -0.0039223884 -0.008310846 0.017810144 0.003607952 -0.035363294 -0.01789276 -0.013463961
-0.0061457166 0.012671908 -0.008386807 -0.010653029 0.07198644 0.017068146 0.0015222527 -0.008361581
-0.027323008 -0.011378603 0.005695625 -0.010153762 -0.022152249 0.029407337 0.051109355 0.03648743
-0.008650252 -0.009564365 0.04785668 -0.0083413 -0.025559792 -0.0055441367 -0.014800545 -0.002133807
00000000: f974 0ebc 089b 1abc dfb3 27bc 4336 563c
00000010: 34ab aa3a 6b2e 573d 1c92 8e3d c812 6c3d
00000020: 151a 823c c1b5 643d d79d 963b 7043 cdbc
00000030: 5819 88bc 5e74 36bc c17d 9b3c 6471 5e3d
00000040: f973 563a a04b 403c 1f52 4dbd ef59 21bb
00000050: 1b97 06bc 834d 37bd 44d9 dbbb 1c49 17bc
00000060: c483 3cbc dd5d 9dbd 2998 8cbb af74 2fbd
00000070: bb43 cbbb f55b f2bb 759c 6abc c247 01bd
00000080: 0db4 14bd 6187 80bb 372a 08bc 94e6 913c
00000090: 6473 6c3b 1ad9 10bd d693 92bc f297 5cbc
000000a0: 0262 c9bb d69d 4f3c d168 09bc 0b8a 2ebc
000000b0: a06d 933d 7fd2 8b3c 5386 c73a 03ff 08bc
000000c0: 80d4 dfbc 526d 3abc 5ea2 ba3b f75b 26bc
000000d0: a278 b5bc a8e7 f03c 0b58 513d d873 153d
000000e0: c9b9 0dbc dbb3 1cbc 5e05 443d f3a9 08bc
000000f0: c562 d1bc 97ab b5bb fc7d 72bc 57d7 0bbb

arith.constant5 f4 [64]
-0.042860527 -0.02682961 -0.011887278 -0.017362598 -0.011383507 -0.024040317 -0.025879133 0.010142995
-0.015612886 0.0139081655 -0.005759232 0.037280086 -0.0010119911 -0.003696983 -0.018722028 -0.02753546
-0.018022887 -0.019393094 -0.008058647 0.03822449 -0.014136134 0.0032267363 -0.02226479 -0.017895767
-0.028664904 -0.03432504 0.01946097 -0.020250155 -0.038817585 -0.01264798 -0.008577191 -0.020010227
0.023838371 0.0037251688 -0.0073372023 -0.017594235 -0.017169347 0.034771565 -0.007423673 -0.019477936
-0.006828751 0.026541775 -0.009157741 -0.01838357 0.02439492 -0.03967452 0.03271314 0.015890302
-0.010456394 0.0032956505 -0.009303764 -0.0054971417 0.0012748322 0.00987897 -0.047980893 0.0030123438
0.04906958 -0.0040451298 -0.023301085 -0.000877607 -0.014554195 -0.03048317 0.010227775 0.0128518175
00000000: 858e 2fbd c5c9 dbbc dcc2 42bc 023c 8ebc
00000010: e481 3abc 33f0 c4bc 7a00 d4bc ce2e 263c
00000020: 31cd 7fbc 13df 633c f1b7 bcbb 01b3 183d
00000030: c9a4 84ba 1549 72bb f05e 99bc 0c92 e1bc
00000040: bca4 93bc 44de 9ebc 6a08 04bc 4891 1c3d
00000050: 3e9b 67bc a777 533b a664 b6bc 259a 92bc
00000060: a9d2 eabc 6a98 0cbd 9d6c 9f3c a7e3 a5bc
00000070: 30ff 1ebd 7939 4fbc 5987 0cbc 7dec a3bc
00000080: b048 c33c f621 743b ea6c f0bb c921 90bc
00000090: bba6 8cbc a16c 0e3d 4842 f3bb 3190 9fbc
000000a0: b7c3 dfbb 236e d93c 5a0a 16bc 2499 96bc
000000b0: dbd7 c73c c081 22bd 37fe 053d 612c 823c
000000c0: 4c51 2bbc d7fb 573b d16e 18bc 5e21 b4bb
000000d0: 4518 a73a 67db 213c 9d87 44bd be6a 453b
000000e0: 2ffd 483d 028d 84bb ebe1 bebc 350f 66ba
000000f0: b874 6ebc d7b7 f9bc 6692 273c 6e90 523c

arith.constant6 f4 [32]
0.008391839 -0.043743994 0.02078886 -0.064091034 0.06414185 -0.020878848 -0.062476095 0.0055327807
0.002909508 0.014340792 0.037742816 0.00013213232 -0.038736723 -0.037130237 0.0027293584 -0.082802914
-0.039555855 0.08256058 0.08012608 -0.031151291 -0.024353756 -0.034047168 0.050361566 -0.007707903
-0.0390277 -0.018648706 0.06392588 -0.061931442 0.07346356 -0.031249065 0.019320482 -0.0346909
00000000: ed7d 093c e72c 33bd 664d aa3c 2942 83bd
00000010: cd5c 833d 1e0a abbc efe6 7fbd 544c b53b
00000020: 72ad 3e3b a4f5 6a3c 3698 1a3d 008d 0a39
00000030: 66aa 1ebd e015 18bd 09df 323b 9394 a9bd
00000040: 5205 22bd 8515 a93d 2419 a43d fe30 ffbc
00000050: 8781 c7bc 0b75 0bbd ee47 4e3d 9492 fcbb
00000060: 82db 1fbd 2cc5 98bc 92eb 823d d3ab 7dbd
00000070: 1074 963d 0afe ffbc fd45 9e3c 0c18 0ebd

arith.constant7 f4 [64, 3, 3, 64]
-0.028344393 -0.06141345 0.052195735 -0.07157341 0.00845575 -0.03821053 -0.008889892 0.020162672
-0.016104229 0.015401366 0.004458434 0.04471945 -0.065984845 -0.03559098 -0.0006767035 0.047975793
0.0023665866 -0.006205309 0.017811418 -0.045066487 0.05189484 0.009671403 0.07197474 0.02301942
0.03625568 0.03558779 0.054816157 0.023248663 -0.053746954 -0.007974598 -0.0059368475 0.018516764
0.011009617 -0.01889282 -0.046176147 -0.025855627 0.0067509213 0.0398302 -0.040986553 -0.03469896
-0.0010340796 0.0017448562 -0.009761837 -0.04440068 0.042507164 -0.06684893 0.017762695 -0.0032486303
0.0037680394 0.023915661 0.05325809 -0.04181752 0.04587314 0.042450935 -0.0756783 -0.020608705
-0.07473083 -0.035069056 -0.009449167 -0.073177196 0.037683968 -0.015623925 -0.007507802 -0.070551164
-0.05310176 0.040945444 -0.051074978 -0.023949042 0.052860964 -0.008864945 0.046643518 0.039417014
-0.031646043 -0.036857348 -0.08617558 -0.018689467 0.045817453 -0.0473792 0.023974938 0.0049412195
0.06454538 -0.06447271 0.00017414498 -0.05324339 0.013678242 0.008100018 0.03925871 -0.04053182
0.07204045 -0.0018142628 -0.05516252 -0.056253932 0.011867367 0.013028437 -0.035343613 -0.011890191
0.006521088 0.023754837 -0.019370329 -0.043451607 -0.054138016 0.05530482 -0.0317419 -0.0039000188
-0.006659366 0.010339203 -0.025449967 0.0045970757 -0.012902833 0.04528863 0.0018280343 0.035661403
0.053063773 -0.0016595486 0.03579328 0.026051855 -0.0379847 -0.032472737 0.026635814 -0.0828184
0.0009870803 -0.033912327 -0.045336623 -0.061336204 0.059714932 -0.09455979 -0.039905533 0.038413126
-0.031035183 0.0026714357 -0.08716946 -0.0010621995 -0.041359827 -0.021467105 -0.015495395 0.006697131
-0.06547212 -0.022754228 -0.0045859106 -0.0142047135 0.057386655 0.02676136 -0.02736376 0.04805134
-0.029933622 -0.004278141 -0.027125679 -0.0026552808 -0.061319083 0.051426142 -0.024096262 0.0027151662
0.061269525 -0.05673185 -0.0030639933 0.0619677 -0.06257746 0.044980466 0.021681974 -0.071785666
0.00016229822 0.025338793 0.022958394 -0.06753363 0.00063398154 0.038079284 0.04263105 0.009259584
0.050959118 -0.037009053 -0.0142695 0.0029491116 -0.020801926 -0.014513672 0.03100703 -0.023165379
0.036963608 0.051324863 0.010547301 -0.084662065 -0.04073347 -0.018104441 -0.05520854 0.008157335
0.048125252 -0.06689661 0.081418715 -0.04539206 -0.047444563 0.008784362 -0.043985955 -0.044903897
-0.046249375 -0.004378934 0.04547417 -0.042352967 -0.04899359 0.004877829 -0.032920755 -0.040540278
0.015629323 0.052999355 -0.09079263 -0.076515324 -0.007851067 0.013332371 -0.014150574 0.027551014
0.002226457 0.013322858 0.038589187 0.02861264 -0.032563858 -0.004757499 -0.021765467 0.04128819
0.012517821 -0.028190704 0.04860369 -0.055441078 0.015302663 -0.04251289 -0.040858842 -0.042914707
-0.0019521301 0.022584366 0.045171987 -0.027242523 -0.007122753 -0.067680664 0.014811152 -0.001614155
-0.021555617 0.010702307 0.04170591 -0.019722342 -0.0742259 0.037881244 -0.036380827 -0.054584023
0.023976982 0.004167336 -0.030312221 -0.037416413 0.06221761 -0.0055619343 0.01896163 0.0033745866
-0.062430836 0.018492378 0.0047505493 -0.05839022 -0.06271827 0.038452137 -0.03336485 -0.067954704
00000000: 8032 e8bc ab8c 7bbd 32cb 553d 1495 92bd
00000010: fc89 0a3c a582 1cbd e9a6 11bc 302c a53c
00000020: 04ed 83bc 0356 7c3c 0e18 923b be2b 373d
00000030: 1023 87bd d9c7 11bd ce64 31ba 4482 443d
00000040: bc18 1b3b e855 cbbb 40e9 913c a397 38bd
00000050: af8f 543d ce74 1e3c 7e67 933d 3993 bc3c
00000060: d680 143d 81c4 113d e886 603d fb73 be3c
00000070: c425 5cbd e3a7 02bc e389 c2bb 78b0 973c
00000080: ae61 343c 1ec5 9abc 3323 3dbd 2ecf d3bc
00000090: d536 dd3b fe24 233d 84e1 27bd 7f20 0ebd
000000a0: f489 87ba a9b3 e43a 1df0 1fbc 7ddd 35bd
000000b0: fe1b 2e3d 18e8 88bd 1283 913c f9e6 54bb
000000c0: 36f1 763b c7ea c33c 2825 5a3d d948 2bbd
000000d0: 79e5 3b3d 08e1 2d3d 39fd 9abd 96d3 a8bc
000000e0: 7a0c 99bd 92a4 0fbd aed0 1abc eddd 95bd
000000f0: 815a 1a3d 7efb 7fbc 0204 f6bb 217d 90bd
00000100: 3b81 59bd 69b6 273d ff33 51bd c830 c4bc
00000110: bd84 583d 463e 11bc 460d 3f3d bc73 213d
00000120: 489f 01bd bbf7 16bd d37c b0bd a71a 99bc
00000130: 15ab 3b3d b110 42bd 1767 c43c f4e9 a13b
00000140: 5e30 843d 450a 84bd b09a 3639 be15 5abd
00000150: b51a 603c f0b5 043c becd 203d b204 26bd
00000160: f289 933d 8fcc edba 18f2 61bd 866a 66bd
00000170: 586f 423c 3a75 553c 77c4 10bd 13cf 42bc
00000180: daae d53b 8199 c23c 86ae 9ebc 50fa 31bd
00000190: d3bf 5dbd 4f87 623d cb03 02bd 7597 7fbb
000001a0: d036 dabb c365 293c 737c d0bc 11a3 963b
000001b0: 6766 53bc 9280 393d a79a ef3a b111 123d
000001c0: 6659 593d 3685 d9ba f99b 123d b36a d53c
000001d0: d895 1bbd 2202 05bd 5a33 da3c b19c a9bd
000001e0: eb60 813a a7e7 0abd e5b2 39bd ac3b 7bbd
000001f0: a597 743d 90a8 c1bd fc73 23bd 1557 1d3d
00000200: 7f3d febc 4113 2f3b e785 b2bd 8039 8bba
00000210: ec68 29bd c8db afbc 66e0 7dbc 9b73 db3b
00000220: 3f16 86bd 1367 babc 6845 96bb e3ba 68bc
00000230: 450e 6b3d a43a db3c f729 e0bc 7bd1 443d
00000240: 5b37 f5bc a62f 8cbb ac36 debc 3804 2ebb
00000250: b829 7bbd 38a4 523d 8665 c5bc eef0 313b
00000260: c1f5 7a3d a85f 68bd 47cd 48bb d8d1 7d3d
00000270: 9d28 80bd 703d 383d 659e b13c 5d04 93bd
00000280: 992e 2a39 4d93 cf3c 3e13 bc3c 124f 8abd
00000290: c831 263a 06f9 1b3d e59d 2e3d 83b5 173c
000002a0: 82ba 503d ce96 17bd 9fca 69bc e245 413b
000002b0: cd68 aabc c1ca 6dbc 7402 fe3c 52c5 bdbc
000002c0: 2767 173d 053a 523d 96ce 2c3c 4e63 adbd
000002d0: 24d8 26bd c44f 94bc 5a22 62bd 58a6 053c
000002e0: fc1e 453d 1701 89bd dbbe a63d 06ed 39bd
000002f0: 3b55 42bd 49ec 0f3c 9e2a 34bd 26ed 37bd
00000300: fc6f 3dbd 297d 8fbb 2043 3a3d 4e7a 2dbd
00000310: 81ad 48bd 32d6 9f3b ead7 06bd 900d 26bd
00000320: 1109 803c da15 593d 7df1 b9bd 11b4 9cbd
00000330: c3a1 00bc 0470 5a3c cfd7 67bc aab2 e13c
00000340: c0e9 113b 1e48 5a3c b20f 1e3d 0e65 ea3c
00000350: ae61 05bd cbe4 9bbb 7e4d b2bc ce1d 293d
00000360: 8c17 4d3c 31f0 e6bc aa14 473d 2f16 63bd
00000370: 05b8 7a3c ff21 2ebd 9a5b 27bd 55c7 2fbd
00000380: 9ede ffba d902 b93c 4306 393d b62b dfbc
00000390: fc65 e9bb 299c 8abd 79aa 723c 0e92 d3ba
000003a0: 6895 b0bc bb58 2f3c d1d3 2a3d c090 a1bc
000003b0: c003 98bd 5d29 1b3d 1004 15bd 7f93 5fbd
000003c0: 606b c43c 268e 883b 5651 f8bc f441 19bd
000003d0: e5d7 7e3d e340 b6bb 6c55 9b3c 2b28 5d3b
000003e0: 7ab7 7fbd 547d 973c 7faa 9b3b 952a 6fbd
000003f0: 7072 80bd fd7f 1d3d 95a9 08bd d62b 8bbd

arith.constant8 f4 [64, 3, 3, 64]
-0.10527552 -0.048160605 -0.0046036784 0.008169487 0.036325477 -0.08573886 -0.008389343 0.035305798
0.060690302 -0.060410164 0.030838512 -0.07984246 0.03048516 0.04102674 -0.116521165 -0.072463386
-0.04629212 0.053303774 0.06614596 -0.037735183 -0.053055137 0.05114119 -0.050338887 -0.09018785
-0.018329084 -0.08086628 0.043582 -0.023360118 -0.036436904 -0.068488695 -0.026827106 -0.005992439
0.054137394 0.0019420603 0.06760669 0.01377881 0.044161756 0.00040456437 -0.012788797 0.00047305704
-0.02777997 0.043890316 0.060793992 0.06445285 0.066659175 -0.115589894 0.0551118 -0.012613726
-0.022295536 0.038912993 -0.050912436 0.018506914 0.058920044 0.0038860696 0.043804567 -0.10352996
0.020123504 -0.00474022 0.036893435 -0.04977222 -0.025815621 -0.028222356 -0.046680965 -0.07172967
0.07635306 -0.027757691 0.029959977 0.044181645 0.036616262 -0.07614753 -0.0035924255 -0.078584455
0.0014554063 -0.022429444 0.05984466 -0.04231129 -0.054981634 -0.09331505 0.02416297 0.071289204
0.082782686 -0.06819986 0.028385917 0.022548849 -0.015073186 -0.006734243 -0.015368017 0.025272021
0.070167586 0.04530735 0.06919456 -0.049260583 -0.018659027 0.020035768 0.035649426 0.028406816
-0.06224434 0.08568479 -0.02714645 -0.12512833 0.07049292 -0.05628074 0.0012342164 -0.0034561844
0.047353115 0.009569857 0.05014046 -0.03723861 0.06730648 -0.092211515 -0.054525554 -0.047614157
-0.024973338 -0.05640895 -0.0600202 0.062363535 0.054775536 0.021318654 0.05017926 0.03069232
-0.054696754 0.023081068 -0.02943692 0.025491519 0.0108022755 -0.0011619263 -0.0023087761 -0.0493905
-0.03462821 -0.035560556 0.042766113 0.035208568 0.0588912 -0.06532355 -0.047520734 -0.056932583
0.0214062 -0.077109635 -0.065524295 -0.024140261 0.067985155 -0.03156728 -0.08492123 0.06578934
0.045311984 0.037414253 -0.002578832 -0.00971154 -0.033316243 0.07301536 0.016006853 -0.07806258
-0.05774713 0.021221232 -0.026513023 0.0018881004 0.016706284 0.0058383225 0.02704814 0.03766503
-0.054859657 -0.055105206 -0.0056820204 0.004052657 -0.030678136 0.046707008 0.0304356 0.03176068
0.07274969 0.060553715 0.051316626 -0.050439678 -0.009386589 -0.019427923 0.0032700165 -0.015827183
0.059797518 0.014041428 0.021633476 0.071561635 -0.0435835 -0.047287535 0.028413927 -0.06297494
-0.028777547 -0.05648807 -0.10878479 0.012247923 0.04054185 -0.013838288 -0.045996238 0.0074535785
-0.092975534 0.03576601 0.03970065 -0.0545082 -0.023541987 -0.020295786 -0.024964543 -0.064918265
-0.071529515 0.058773022 0.015844097 0.10857372 0.0461986 -0.010091346 -9.362913e-05 0.06869786
0.016436202 0.06908389 0.030070286 0.062742546 0.07374201 -0.04110509 0.011899015 -0.057218466
-0.04813231 -0.015979867 0.15316877 -0.021425026 -0.074410625 -0.049645666 0.01908339 -0.025729107
-0.019045362 0.06878487 0.061502777 0.17355616 -0.012507671 -0.11275568 0.035919182 -0.056241184
0.040210497 -0.017947454 -0.04518173 0.056293175 0.030310443 -0.063989274 -0.015425468 -0.011624975
0.022571295 0.058257293 0.06437424 -0.07516984 0.01826476 -0.04318004 -0.0072763544 -0.00641875
0.060311787 -0.045863353 -0.066812366 0.025719495 -0.07781256 -0.00027886292 0.0173583 0.014823602
00000000: b19a d7bd 0e44 45bd 74da 96bb 50d9 053c
00000010: 06ca 143d db97 afbd 7473 09bc d09c 103d
00000020: 6596 783d a670 77bd 0ca1 fc3c 7284 a3bd
00000030: 04bc f93c a80b 283d a6a2 eebd af67 94bd
00000040: ce9c 3dbd 0f55 5a3d 8877 873d 3590 1abd
00000050: 5850 59bd 6d79 513d 2630 4ebd 68b4 b8bd
00000060: e026 96bc 389d a5bd 0a83 323d b85d bfbc
00000070: dd3e 15bd cd43 8cbd 85c4 dbbc 395c c4bb
00000080: 2cbf 5d3d bb8c fe3a 6075 8a3d 85c0 613c
00000090: f5e2 343d b61b d439 1a88 51bc a404 f839
000000a0: d292 e3bc 55c6 333d 1f03 793d dbff 833d
000000b0: 9b84 883d 65ba ecbd e9bc 613d cda9 4ebc
000000c0: 21a5 b6bc 3b63 1f3d 8f89 50bd d09b 973c
000000d0: 2556 713d 6ead 7e3b 6b6c 333d 8407 d4bd
000000e0: 0cda a43c d953 9bbb 921d 173d f5dd 4bbd
000000f0: 487b d3bc 9232 e7bc 8a34 3fbd 01e7 92bd
00000100: fe5e 9c3d 1964 e3bc a06e f53c d0f7 343d
00000110: effa 153d 3cf3 9bbd e66e 6bbb e3f0 a0bd
00000120: 55c3 be3a f4bd b7bc ad1f 753d 9a4e 2dbd
00000130: 6c34 61bd f61b bfbd 6cf1 c53c 1300 923d
00000140: f889 a93d 5eac 8bbd 9589 e83c 5db8 b83c
00000150: 86f5 76bc edaa dcbb 23ca 7bbc 4507 cf3c
00000160: 06b4 8f3d 3394 393d e1b5 8d3d 77c5 49bd
00000170: d1da 98bc 0d22 a43c 2205 123d 69b5 e83c
00000180: ecf3 7ebd 827b af3d 3b62 debc a421 00be
00000190: 985e 903d a286 66bd 6ec5 a13a 2781 62bb
000001a0: 57f5 413d e4ca 1c3c 1560 4d3d 8387 18bd
000001b0: fbd7 893d 64d9 bcbd 3056 5fbd 1007 43bd
000001c0: e394 ccbc 120d 67bd bed7 75bd e870 7f3d
000001d0: 505c 603d 75a4 ae3c c588 4d3d 766e fb3c
000001e0: b409 60bd 8214 bd3c b225 f1bc 97d3 d03c
000001f0: 07fc 303c c74b 98ba d64e 17bb b14d 4abd
00000200: 4fd6 0dbd f2a7 11bd 852b 2f3d dc36 103d
00000210: e637 713d 5ac8 85bd 1aa5 42bd 2432 69bd
00000220: 0e5c af3c a8eb 9dbd 9a31 86bd ccc1 c5bc
00000230: cd3b 8b3d b14c 01bd 2feb adbd 90bc 863d
00000240: 0f99 393d b03f 193d 9f01 29bb 271d 1fbc
00000250: 9d76 08bd 1489 953d ce20 833c 46df 9fbd
00000260: 4188 6cbd 26d8 ad3c d731 d9bc 237a f73a
00000270: 9edb 883c 664f bf3b 1094 dd3c a646 1a3d
00000280: 85b4 60bd ffb5 61bd 3e30 babb 27cc 843b
00000290: b750 fbbc d94f 3f3d 1454 f93c 7d17 023d
000002a0: cafd 943d 2c07 783d 6231 523d d699 4ebd
000002b0: 35ca 19bc 4f27 9fbc c64d 563b 02a8 81bc
000002c0: 3eee 743d 050e 663c b038 b13c e88e 923d
000002d0: 9d84 32bd 93b0 41bd 53c4 e83c 01f9 80bd
000002e0: e4be ebbc 0960 67bd 8fca debd 83ab 483c
000002f0: 360f 263d fdb9 62bc 8d66 3cbd 263d f43b
00000300: f569 bebd 617f 123d 269d 223d fe43 5fbd
00000310: 20db c0bc 5943 a6bc 7182 ccbc def3 84bd
00000320: 117e 92bd fbbb 703d 7bcb 813c e65b de3d
00000330: be3a 3d3d 2c56 25bc c25a c4b8 77b1 8c3d
00000340: 37a5 863c db7b 8d3d f655 f63c 2a7f 803d
00000350: 0d06 973d d05d 28bd 16f4 423c e95d 6abd
00000360: 6326 45bd 36e8 82bc 46d8 1c3e 8983 afbc
00000370: 9964 98bd 4159 4bbd c554 9c3c d9c5 d2bc
00000380: 0505 9cbc 15df 8c3d 56ea 7b3d b5b8 313e
00000390: f9ec 4cbc 73ec e6bd fe1f 133d 285d 66bd
000003a0: c3b3 243d 8a06 93bc 7a10 39bd ac93 663d
000003b0: 9b4d f83c cf0c 83bd 1abb 7cbc ae76 3ebc
000003c0: 70e7 b83c 339f 6e3d a4d6 833d a5f2 99bd
000003d0: fa9f 953c 8edd 30bd 7c6e eebb 6154 d2bb
000003e0: 7e09 773d 36db 3bbd ecd4 88bd b1b1 d23c
000003f0: 315c 9fbd 5934 92b9 fe32 8e3c b1de 723c

arith.constant9 f4 [64, 3, 3, 64]
-0.06265354 0.062531896 0.025888056 0.04815822 0.0010537625 0.16818523 0.05018752 -0.03175857
-0.05657859 0.06980479 0.004598748 0.017225958 -0.076505706 0.037244238 0.041922808 0.11837707
0.03923662 0.011710006 0.030779725 -0.051776864 -0.05143285 -0.06123175 -0.062052775 -0.065623246
-0.004970475 0.037843775 -0.06254227 -0.041226983 0.026479062 -0.07058485 0.0006441641 -0.06962428
-0.029853893 0.02807848 0.05239919 0.03278169 0.008219868 -0.011433258 -0.065576255 0.04620898
0.004964968 -0.07862203 -0.040663723 0.06025863 0.13356632 -0.0039410307 0.07283097 0.028218208
0.06929098 0.044151966 -0.006297087 -0.07682806 -0.06364421 0.09081508 0.030724484 0.091690585
-0.03373323 -0.07173115 0.029952783 0.0077924384 -0.0034665032 -0.026734289 -0.04571711 0.06103453
-0.05356085 0.028945655 0.08970256 -0.05985757 0.024057856 -0.0026306869 0.02524877 -0.020418545
0.012712737 0.032042284 0.04753891 -0.054870605 0.057149556 -0.028057208 -0.0405649 0.117880605
0.042161718 0.03539199 -0.051760353 -0.0035867987 0.045533855 0.057770807 0.023580154 0.055273317
-0.026337776 0.0043065734 -0.022300893 0.047642894 -0.07156103 0.05838728 0.06575128 0.02588259
-0.0026167256 0.05330258 0.062156416 0.012592355 0.0389498 -0.0029530625 -0.06795485 0.022378063
0.08108986 0.06566555 0.04439574 -0.016101414 0.057739913 0.077660106 0.058541656 -0.03461175
-0.02974823 0.050987594 0.049829453 0.022620142 0.0513267 0.03941531 0.044926055 0.08550188
-0.05664003 0.077735916 0.106349215 0.06493377 -0.018598877 0.02088207 0.019700317 0.041975155
-0.010714648 0.0137715135 0.08260793 0.022531876 0.079778634 0.03609378 -0.09774393 -0.07877474
0.09266508 0.030827269 0.044465948 -0.015464954 0.06513672 0.09771941 0.11027153 0.02565064
0.042526297 0.05206472 0.04789088 -0.04621094 -0.057948276 0.040646933 -0.03934047 -0.01683544
0.010093054 0.014480841 -0.052911814 0.047771305 0.05784273 -0.071150854 -0.05457577 -0.049968068
0.09743487 -0.011585253 -0.07497312 0.02878529 -0.00674893 0.060096115 -0.065435775 0.044037275
0.07479564 0.0016607932 0.023032349 -0.00238394 -0.006883207 0.005226052 -0.05544831 0.06189541
-0.034163665 -0.07427721 0.052210737 0.051249105 0.06802235 0.008631542 0.107455686 -0.0031347584
0.040344696 0.06732469 -0.06341076 0.022570662 0.035416085 0.023263915 -0.041314688 0.13089286
0.038409416 0.0009248503 -0.008847381 0.030191462 -0.091668196 0.168235 0.062875554 -0.037243288
-0.014251526 0.06686599 -0.039052412 0.014566235 -0.070851885 -0.051350746 0.01643578 0.09560789
0.0595286 -0.030104402 -0.06669619 -0.08638687 0.00774263 -0.08587623 0.0472914 0.070302896
-0.01943276 0.0056908955 -0.06664888 0.058701962 0.005013729 -0.0113403145 -0.07045106 -0.058464292
-0.040318258 0.0025956219 -0.030439444 -0.008196572 0.0041526193 -0.013967148 0.06927089 -0.024270084
-0.045739006 0.005956108 -0.011595693 0.040586453 0.15253535 0.00828713 0.05735757 -0.0073945946
0.058167573 0.00244245 -0.012637076 0.011240224 -0.009366314 0.104613535 0.039306257 0.07937263
-0.030312873 0.010305894 0.067259416 -0.030022958 0.045732375 -0.007158464 0.0702938 -0.098079346
00000000: 8050 80bd b910 803d 3013 d43c 8e41 453d
00000010: 671e 8a3a c038 2c3e 6e91 4d3d 4615 02bd
00000020: f4be 67bd d0f5 8e3d 18b1 963b 741d 8d3c
00000030: 06af 9cbd 6a8d 183d 40b7 2b3d ad6f f23d
00000040: 94b6 203d 53db 3f3c c325 fc3c fa13 54bd
00000050: 41ab 52bd 25ce 7abd 0d2b 7ebd 7b65 86bd
00000060: 5edf a2bb 1302 1b3d 2916 80bd a0dd 28bd
00000070: 9eea d83c ca8e 90bd 1fdd 283a 2d97 8ebd
00000080: 2790 f4bc d704 e63c 88a0 563d 1846 063d
00000090: a0ac 063c 8f52 3bbc d84c 86bd a145 3d3d
000000a0: 2cb1 a23b 9604 a1bd 018f 26bd c1d1 763d
000000b0: 9cc5 083e c323 81bb 6728 953d df29 e73c
000000c0: 6ee8 8d3d b1d8 343d cb57 cebb 0858 9dbd
000000d0: e557 82bd 42fd b93d eab1 fb3c 46c8 bb3d
000000e0: db2b 0abd c8e7 92bd 8a5f f53c b657 ff3b
000000f0: 462e 63bb de01 dbbc dd41 3bbd 58ff 793d
00000100: 9f62 5bbd 701f ed3c fab5 b73d 362d 75bd
00000110: fb14 c53c 9a67 2cbb 82d6 ce3c cb44 a7bc
00000120: 1549 503c c53e 033d 29b8 423d 00c0 60bd
00000130: a715 6a3d 3bd8 e5bc 6127 26bd 636b f13d
00000140: c4b1 2c3d 31f7 103d aa02 54bd 7f10 6bbb
00000150: b581 3a3d 15a1 6c3d 2b2b c13c 4666 623d
00000160: 52c2 d7bc 281e 8d3b 5db0 b6bc 3225 433d
00000170: 978e 92bd 8027 6f3d 9ba8 863d ba07 d43c
00000180: 5f7d 2bbb ce53 5a3d ba97 7e3d 2a50 4e3c
00000190: d389 1f3d 2b88 41bb ea2b 8bbd 3352 b73c
000001a0: 7112 a63d a97b 863d 4fd8 353d 1de7 83bc
000001b0: b080 6c3d 430c 9f3d 60c9 6f3d 0dc5 0dbd
000001c0: 8fb2 f3bc 5ed8 503d f819 4c3d e04d b93c
000001d0: f23b 523d f371 213d 6204 383d 9c1b af3d
000001e0: 60ff 67bd 0234 9f3d 9ecd d93d fffb 843d
000001f0: ac5c 98bc e010 ab3c 8f62 a13c 24ee 2b3d
00000200: 7e8c 2fbc eaa1 613c 592e a93d c594 b83c
00000210: fb62 a33d 12d7 133d f82d c8bd a754 a1bd
00000220: 31c7 bd3d 7889 fc3c ed21 363d b860 7dbc
00000230: 6766 853d 1d21 c83d 0ad6 e13d 4a21 d23c
00000240: 0e30 2e3d d141 553d 3a29 443d af47 3dbd
00000250: 2c5b 6dbd 667d 263d 7923 21bd 7aea 89bc
00000260: 565d 253c 0d41 6d3c 0fba 58bd d8ab 433d
00000270: 80ec 6c3d 8ab7 91bd d88a 5fbd 51ab 4cbd
00000280: ef8b c73d 13d0 3dbc 828b 99bd 21cf eb3c
00000290: 2126 ddbb 5827 763d 3103 86bd 6e60 343d
000002a0: 752e 993d f9ae d93a 56ae bc3c e03b 1cbb
000002b0: 868c e1bb 4d3f ab3b c41d 63bd 0b86 7d3d
000002c0: 33ef 0bbd a61e 98bd edda 553d 95ea 513d
000002d0: 4d4f 8b3d 506b 0d3c ba11 dc3d 8570 4dbb
000002e0: 7b40 253d 87e1 893d 80dd 81bd 1ce6 b83c
000002f0: 7510 113d f793 be3c 9739 29bd c708 063e
00000300: 3153 1d3d a771 723a 9bf4 10bc 1654 f73c
00000310: 89bc bbbd cc45 2c3e e6c4 803d 6b8c 18bd
00000320: 3c7f 69bc 09f1 883d 6cf5 1fbd 38a7 6e3c
00000330: cb1a 91bd 2955 52bd 54a4 863c 12ce c33d
00000340: 43d4 733d 829d f6bc 0398 88bd 99eb b0bd
00000350: e3b5 fd3b e0df afbd a1b4 413d f7fa 8f3d
00000360: 7431 9fbc b17a ba3b 357f 88bd 7871 703d
00000370: 354a a43b bacc 39bc a548 90bd 4178 6fbd
00000380: c224 25bd 4f1b 2a3b 245c f9bc ea4a 06bc
00000390: b212 883b 77d6 64bc e5dd 8d3d 0ed2 c6bc
000003a0: d358 3bbd 752b c33b ddfb 3dbc fb3d 263d
000003b0: 3a32 1c3e bec6 073c c5ef 6a3d 5b4e f2bb
000003c0: 1f41 6e3d 8311 203b bd0b 4fbc eb28 383c
000003d0: 2b75 19bc 9f3f d63d 99ff 203d 1e8e a23d
000003e0: b452 f8bc 0dda 283c 4ebf 893d b5f2 f5bc
000003f0: df51 3b3d 8c91 eabb 32f6 8f3d d3dd c8bd

arith.constant10 f4 [64, 3, 3, 64]
-0.043031376 -0.040859763 0.02508106 -0.005840253 -0.042521544 -0.032145124 -0.033696875 -0.012013088
0.020644117 -0.020198498 -0.06401557 -0.013349886 0.059987046 -0.07707181 -0.0060350164 -0.07842647
0.061837945 -0.036047477 0.02984693 0.014327562 0.0334305 -0.045340918 0.054616135 -0.05378829
-0.040830508 -0.04925343 0.017408121 0.029950105 -0.013089383 0.059653886 0.0018879728 0.03682954
-0.034200806 0.0059055234 0.026177539 -0.04163509 -0.04295717 -0.033670947 -0.056381363 -0.018144168
0.020029148 0.037563644 -0.052569147 -0.010908845 -0.037539206 0.046344932 -0.006426841 -0.008674042
0.05570814 -0.059040375 0.021034693 -0.04745863 -0.015841842 -0.066315085 -0.013375707 0.05661947
-0.029071525 -0.027482772 0.042873144 0.03512036 -0.06483589 -0.051642217 -0.04320184 -0.063732974
-0.036959898 0.016228734 0.04413206 0.014684589 -0.0025569797 0.030990858 -0.029729478 0.06677039
0.014121408 0.04294776 -0.027079212 -0.01770153 -0.060972273 0.007987007 -0.05512792 -0.039854534
0.060447827 -0.053692874 -0.026061727 -0.02147273 -0.04096425 -0.02265678 0.062088083 -0.046965294
-0.0466602 -0.049391497 -0.03799247 -0.048720554 0.038686268 0.015246766 -0.02707909 -0.012601864
0.010537824 -0.07121928 0.018734714 0.021028131 -0.016914813 0.004490203 -0.0048590624 -0.029245267
-0.04225223 0.0136013385 -0.01934768 -0.060603097 0.060956907 -0.0026704273 -0.0007939062 -0.036951076
-0.024081297 0.0071102087 -0.045944612 0.057998642 0.06089411 -0.04620166 0.013084842 0.033291593
0.003048074 0.05285161 -0.019274067 -0.021799697 -0.052470658 -0.019395314 -0.0032770871 0.0554504
0.039186273 -0.05548462 -0.008446176 0.011694194 0.07051847 -0.032399677 -0.067805044 0.016659833
0.022847854 -0.005759995 0.055094767 -0.06031305 -0.024255088 -0.051317006 0.033161853 0.058543056
0.052228987 0.03210486 0.0012199364 -0.016711049 -0.00025651604 -0.035235625 -0.067511134 -0.030429957
-0.053188395 0.035170328 -0.05380644 -0.057433993 -0.0070527475 -0.0035006565 -0.026975697 -0.052274074
-0.00439224 0.03469866 -0.007714202 0.03544592 0.058105886 -0.021631895 0.06364213 -0.016192734
-0.04440433 0.006168511 0.062451642 0.059749715 -0.061036997 0.05055609 -0.05923683 -0.0031931219
0.022947637 0.031865932 -0.060548685 -0.026384627 -0.06415994 0.06496053 -0.048937313 -0.067703016
0.012927162 -0.06535464 -0.026825363 0.0050568604 0.05557536 0.060932875 0.037498668 -0.0684424
0.048867952 -0.053866547 -0.036314406 -0.013290562 -0.061823126 0.022282148 0.011014228 -0.0142830685
0.0069560823 -0.011018565 -0.013938884 -0.07120615 0.029021705 -0.025127798 0.007814854 -0.07560908
0.0381118 0.050391052 -0.014952803 -0.014645118 0.059673388 0.0681555 0.0668348 -0.021581028
-0.041193437 -0.06221571 -0.038866285 -0.038150325 -0.057339516 -0.07101124 0.04567459 0.032276627
-0.011686874 -0.053264562 -0.017976416 -0.06739458 0.05258376 0.0357586 -0.013819755 -0.054215472
0.046664704 -0.06729876 -0.013036707 0.0047262195 0.047343563 -0.01352727 0.033437103 -0.037684094
0.05416125 0.06844628 0.0101772975 -0.016270222 -0.07209347 0.019129707 0.006411974 0.04842184
0.06142305 0.04658003 0.0024225942 0.013251995 -0.07290018 0.031424303 0.0028576585 0.018446773
00000000: ab41 30bd 915c 27bd cc76 cd3c 985f bfbb
00000010: 122b 2ebd 9baa 03bd bc05 0abd 8bd2 44bc
00000020: da1d a93c 5277 a5bc 981a 83bd 7bb9 5abc
00000030: fab4 753d d3d7 9dbd 63c1 c5bb 0f9e a0bd
00000040: c949 7d3d 85a6 13bd 8d81 f43c 27be 6a3c
00000050: 6cee 083d 66b7 39bd 2bb5 5f3d 1c51 5cbd
00000060: e43d 27bd f7bd 49bd 7a9b 8e3c ec59 f53c
00000070: da74 56bc a257 743d db75 f73a 92da 163d
00000080: 2516 0cbd 1f83 c13b 4772 d63c 8e89 2abd
00000090: dcf3 2fbd 8cea 09bd 25f0 66bd 14a3 94bc
000000a0: 2b14 a43c 56dc 193d bf52 57bd 03bb 32bc
000000b0: b6c2 19bd 2fd4 3d3d 4098 d2bb 921d 0ebc
000000c0: 382e 643d 52d4 71bd f350 ac3c fb63 42bd
000000d0: c0c6 81bc 34d0 87bd c825 5bbc d1e9 673d
000000e0: 6827 eebc 8d23 e1bc c09b 2f3d 5eda 0f3d
000000f0: aec8 84bd ca86 53bd 6af4 30bd 6f86 82bd
00000100: 4363 17bd 1ff2 843c d2c3 343d a197 703c
00000110: 0093 27bb 8ae0 fd3c 3c8b f3bc eabe 883d
00000120: 7a5d 673c fee9 2f3d 39d5 ddbc cd02 91bc
00000130: 10be 79bd efdb 023c d0cd 61bd 823e 23bd
00000140: 2498 773d 0fed 5bbd 677f d5bc 94e7 afbc
00000150: 21ca 27bd b69a b9bc 1350 7e3d ae5e 40bd
00000160: c41e 3fbd bd4e 4abd fe9d 1bbd 348f 47bd
00000170: 7e75 1e3d 92cd 793c f8d4 ddbc 0c78 4ebc
00000180: d6a6 2c3c 6adb 91bd 8b79 993c 3043 ac3c
00000190: ef90 8abc 8e22 933b c538 9fbb c593 efbc
000001a0: ad10 2dbd 26d8 5e3c 077f 9ebc f43a 78bd
000001b0: f3ad 793d 5602 2fbb 251e 50ba 035a 17bd
000001c0: 2446 c5bc c1fc e83b 6b30 3cbd fc8f 6d3d
000001d0: 1a6c 793d f43d 3dbd ce61 563c c45c 083d
000001e0: 32c2 473b ee7a 583d a6e4 9dbc 4795 b2bc
000001f0: 79eb 56bd ece2 9ebc 66c4 56bb f51f 633d
00000200: c981 203d d743 63bd d461 0abc 0199 3f3c
00000210: fd6b 903d 86b5 04bd 5fdd 8abd 347a 883c
00000220: 6c2b bb3c 57be bcbb 0dab 613d d10a 77bd
00000230: 9bb2 c6bc c831 52bd b9d4 073d d8ca 6f3d
00000240: 10ee 553d 6380 033d 46e6 9f3a 9ce5 88bc
00000250: 007d 86b9 3b53 10bd 4743 8abd 3f48 f9bc
00000260: 13dc 59bd c30e 103d 2464 5cbd e83f 6bbd
00000270: bc1a e7bb 456b 65bb 23fc dcbc 571d 56bd
00000280: c8ec 8fbb 2f20 0e3d 6bc7 fcbb be2f 113d
00000290: 7000 6e3d 5f35 b1bc ce56 823d a0a6 84bc
000002a0: 51e1 35bd 3921 ca3b 4bcd 7f3d 1ebc 743d
000002b0: ee01 7abd e713 4f3d 51a2 72bd b243 51bb
000002c0: affc bb3c da85 023d e601 78bd 9324 d8bc
000002d0: 4966 83bd 070a 853d 7e72 48bd e1a7 8abd
000002e0: 73cc 533c a7d8 85bd ddc0 dbbc 05b4 a53b
000002f0: fda2 633d c094 793d 3498 193d 872b 8cbd
00000300: c329 483d 2ba3 5cbd 6abe 14bd a8c0 59bc
00000310: 3f3a 7dbd 0d89 b63c 0575 343c 8803 6abc
00000320: d9ef e33b 3687 34bc eb5f 64bc 88d4 91bd
00000330: edbe ed3c d0d8 cdbc e009 003c efd8 9abd
00000340: 1e1b 1c3d d966 4e3d 9afc 74bc 14f2 6fbc
00000350: 156c 743d 1c95 8b3d afe0 883d b2ca b0bc
00000360: 73ba 28bd e6d5 7ebd 4132 1fbd 8443 1cbd
00000370: d7dc 6abd 576e 91bd 4715 3b3d 7f34 043d
00000380: 4d7a 3fbc f12b 5abd 4743 93bc 2b06 8abd
00000390: 1262 573d 9c77 123d 416c 62bc 0b11 5ebd
000003a0: 7d23 3f3d efd3 89bd ea97 55bc 67de 9a3b
000003b0: 53eb 413d 7ca1 5dbc 58f5 083d a35a 1abd
000003c0: 30d8 5d3d 902d 8c3d aebe 263c 2149 85bc
000003d0: bea5 93bd e7b5 9c3c 891b d23b fb55 463d
000003e0: bc96 7b3d b4ca 3e3d 63c4 1e3b e51e 593c
000003f0: b14c 95bd c5b6 003d 8e47 3b3b b01d 973c

arith.constant11 f4 [64, 3, 3, 32]
-0.04324499 0.10884431 0.021408344 0.061294332 0.029723333 0.012193373 0.018747455 0.061464783
-0.023348771 0.06206163 0.063040115 0.0114023285 0.068156496 -0.053179614 -0.04103516 0.04387232
-0.012002099 -0.026709825 -0.14374998 0.014751988 0.015709639 0.02841864 0.10426562 0.02021857
-0.061934713 -0.00011289167 -0.051706854 -0.03493298 0.07074201 -0.0003119781 0.094576284 0.017709179
0.0056185396 9.740107e-05 -0.024652144 -0.004823113 0.02684488 -0.0063613323 -0.013060208 -0.06924746
0.05138337 0.05536318 0.047604263 0.014849759 -0.00028157534 -0.030295031 0.0020947529 0.09788938
-0.009902339 -0.08814315 -0.066363886 0.044811305 0.09592024 -0.005807523 0.050698057 0.04116832
-0.0053560277 -0.0021937315 -0.06744603 0.05173536 -0.053604875 0.04862843 -0.005636648 0.03419187
-0.05900075 -0.009336491 -0.06487583 -0.049107246 -0.0011860599 0.026147269 -0.05835231 -0.002636064
0.042763285 -0.02475748 0.076527536 0.15042718 -0.010918044 0.05453179 0.06511808 0.022236658
0.011394823 -0.13777187 -0.018836519 0.11200115 -0.025691189 0.09088409 0.064838834 -0.027530372
0.062122274 0.0034165995 0.029668069 0.08544323 -0.033622403 0.0321072 0.099371076 0.08572006
-0.09044215 0.07373733 -0.0019909572 0.056842048 0.08712032 -0.006431978 -0.007889707 -0.030873537
0.049579006 0.06566657 0.03230269 0.15380822 -0.031451467 0.014364653 -0.025177518 0.007432254
-0.0706633 -0.060773112 0.009798871 -0.04340698 0.06434071 0.049942784 -0.026180556 0.061940163
-0.014739525 -0.026046293 -0.046345666 0.090404406 0.064778715 -0.048981834 0.08086581 0.08726918
0.013578063 -0.022348799 -0.06604172 0.04188268 -0.03797824 -0.016449776 0.06331247 0.12313321
-0.04774446 0.022359781 -0.013792102 0.14684251 -0.04094845 -0.034673512 -0.069660135 0.031555697
0.061645586 -0.06464159 0.009585228 0.063299485 -0.010919901 0.004831155 0.026784534 0.0111845555
0.037455004 0.02381246 0.04639589 -0.01673149 -0.05804272 -0.040313933 -0.023475083 0.090825446
0.03983786 0.03460571 0.01442064 0.0058191954 0.09587262 -0.05729604 -0.02916938 0.002689729
0.009095793 0.0095016565 0.019968763 0.13863145 0.026689216 -0.05190414 0.078079246 0.09921349
0.10001396 -0.1344607 -0.04694258 0.06711465 0.030855821 -0.04580254 0.13932697 0.086181164
0.010199458 -0.04614337 -0.010958938 0.039452966 0.06892946 -0.0196731 0.067493096 0.013004604
-0.0042746146 0.078353815 -0.06385291 -0.067071445 -0.06827495 0.08519315 0.05799717 -0.008300322
0.0366396 0.06650406 -0.035664886 0.019537577 0.04409808 0.009918107 0.076909736 -0.0163977
-0.03287384 -0.15063381 -0.052187383 0.054603655 -0.033735022 -0.043703385 0.09024184 -0.043434624
0.08114991 0.04495327 0.039238226 0.013945458 -0.0686058 0.066004686 0.031676 -0.043247793
-0.079871766 0.097888894 0.039080754 -0.07556751 -0.008789152 0.030998351 0.0118694175 -0.04055741
-0.027901355 0.050681416 -0.022376038 0.08887606 0.06063974 -0.016781665 0.08531168 -0.019319942
0.043015707 0.019391416 -0.08260022 -0.00058910844 -0.05388205 -0.024656776 0.1391953 0.08543313
0.064703934 -0.02632925 0.06028448 0.03032495 -0.044266067 0.07131262 0.0364169 -0.01461253
00000000: a921 31bd c4e9 de3d 8d60 af3c c40f 7b3d
00000010: 597e f33c b7c6 473c 4394 993c 7fc2 7b3d
00000020: ec45 bfbc 5634 7e3d 2d1b 813d d5d0 3a3c
00000030: a295 8b3d ded2 59bd 7c14 28bd 76b3 333d
00000040: 74a4 44bc 90ce dabc 3233 13be 53b2 713c
00000050: 80b1 803c 35ce e83c 3789 d53d 6aa1 a53c
00000060: 41af 7dbd 41c0 ecb8 91ca 53bd e215 0fbd
00000070: 30e1 903d fe90 a3b9 36b1 c13d d712 913c
00000080: ba1b b83b cd43 cc38 4bf3 c9bc 340b 9ebb
00000090: cbe9 db3c b972 d0bb 7cfa 55bc 9dd1 8dbd
000000a0: 5e77 523d 80c4 623d b0fc 423d 674c 733c
000000b0: 67a0 93b9 492d f8bc 1f48 093b 3a7a c83d
000000c0: 6c3d 22bc 6584 b4bd cae9 87bd 0f8c 373d
000000d0: d571 c43d 094d bebb c4a8 4f3d 1da0 283d
000000e0: 9e81 afbb b5c4 0fbb 2521 8abd 75e8 533d
000000f0: c990 5bbd 9b2e 473d a1b3 b8bb c60c 0c3d
00000100: c5aa 71bd 15f8 18bc 9fdd 84bd ae24 49bd
00000110: 9175 9bba cc32 d63c d502 6fbd d1c1 2cbb
00000120: 8e28 2f3d 33d0 cabc 78ba 9c3d 9509 1a3e
00000130: 98e1 32bc ba5c 5f3d a15c 853d a729 b63c
00000140: 5ab1 3a3c 1214 0dbe 0b4f 9abc dc60 e53d
00000150: 5476 d2bc 7021 ba3d 39ca 843d 6087 e1bc
00000160: ed73 7e3d 07e9 5f3b 730a f33c dcfc ae3d
00000170: a5b7 09bd d782 033d 1083 cb3d 008e af3d
00000180: bc39 b9bd 9903 973d b87a 02bb 35d3 683d
00000190: 236c b23d 58c3 d2bb d443 01bc 80ea fcbc
000001a0: 5b13 4b3d 327c 863d d34f 043d e77f 1d3e
000001b0: 41d3 00bd b959 6b3c 1541 cebc 448a f33b
000001c0: ecb7 90bd 3aed 78bd 728b 203c 84cb 31bd
000001d0: 10c5 833d ce90 4c3d 9b78 d6bc f8b4 7d3d
000001e0: 0c7e 71bc 095f d5bc f4d4 3dbd f225 b93d
000001f0: b4aa 843d 2da1 48bd f99c a53d 2fba b23d
00000200: 8676 5e3c d414 b7bc e240 87bd 2c8d 2b3d
00000210: 128f 1bbd aec1 86bc f8a9 813d 442d fc3d
00000220: b28f 43bd dc2b b73c 45f8 61bc e25d 163e
00000230: 90b9 27bd d005 0ebd f9a9 8ebd 8c40 013d
00000240: 1580 7c3d cf62 84bd 5c0b 1d3c 29a3 813d
00000250: 62e9 32bc aa4e 9e3b 3d6b db3c 6d3f 373c
00000260: 6b6a 193d 5912 c33c 9e09 3e3d 7a10 89bc
00000270: 34be 6dbd 3920 25bd d14e c0bc b102 ba3d
00000280: 062d 233d b8be 0d3d 8c44 6c3c f3ae be3b
00000290: dd58 c43d 41af 6abd a0f4 eebc 2a46 303b
000002a0: 8506 153c d6ac 1b3c 8895 a33c 67f5 0d3e
000002b0: 58a3 da3c 6f99 54bd 03e8 9f3d 7130 cb3d
000002c0: 1ed4 cc3d 11b0 09be dd46 40bd 6873 893d
000002d0: 59c5 fc3c 729b 3bbd bbab 0e3e c07f b03d
000002e0: a11b 273c d500 3dbd 1e8d 33bc 6f99 213d
000002f0: e42a 8d3d 7b29 a1bc d239 8a3d 4311 553c
00000300: 1112 8cbb f777 a03d 51c5 82bd c15c 89bd
00000310: bdd3 8bbd bf79 ae3d 718e 6d3d 13fe 07bc
00000320: 6813 163d 4833 883d 5815 12bd 450d a03c
00000330: 30a0 343d 8e7f 223c da82 9d3d 7854 86bc
00000340: b8a6 06bd c03f 1abe 70c2 55bd 15a8 5f3d
00000350: bc2d 0abd 5202 33bd b7d0 b83d 81e8 31bd
00000360: ed31 a63d ec20 383d 43b8 203d 7e7b 643c
00000370: 3381 8cbd 772d 873d b2be 013d 9924 31bd
00000380: cf93 a3bd f979 c83d 2413 203d 24c3 9abd
00000390: 6000 10bc 41f0 fd3c f277 423c 871f 26bd
000003a0: 6291 e4bc 5197 4f3d f44d b7bc a704 b63d
000003b0: 6061 783d b479 89bc e4b7 ae3d db44 9ebc
000003c0: 3d31 303d bfda 9e3c 4e2a a9bd 666e 1aba
000003d0: 6db3 5cbd 02fd c9bc 3689 0e3e 91f7 ae3d
000003e0: 7f83 843d 70b0 d7bc dcec 763d 086c f83c
000003f0: 5650 35bd 5a0c 923d e329 153d 6569 6fbc
